…
   "outputs": [],
   "source": []
  },
  {
   "cell_type": "code",
   "execution_count": 8,
   "metadata": {
    "collapsed": true
   },
   "outputs": [
    {
     "name": "stdout",
     "output_type": "stream",
     "text": [
      "____________________________________________________________________________________________________\n",
      "Layer (type)                     Output Shape          Param #     Connected to                     \n",
      "====================================================================================================\n",
      "input_1 (InputLayer)             (None, 256, 256, 3)   0                                            \n",
      "____________________________________________________________________________________________________\n",
      "conv1 (Conv2D)                   (None, 127, 127, 64)  1792        input_1[0][0]                    \n",
      "____________________________________________________________________________________________________\n",
      "relu_conv1 (Activation)          (None, 127, 127, 64)  0           conv1[0][0]                      \n",
      "____________________________________________________________________________________________________\n",
      "pool1 (MaxPooling2D)             (None, 63, 63, 64)    0           relu_conv1[0][0]                 \n",
      "____________________________________________________________________________________________________\n",
      "fire2/squeeze1x1 (Conv2D)        (None, 63, 63, 16)    1040        pool1[0][0]                      \n",
      "____________________________________________________________________________________________________\n",
      "fire2/relu_squeeze1x1 (Activatio (None, 63, 63, 16)    0           fire2/squeeze1x1[0][0]           \n",
      "____________________________________________________________________________________________________\n",
      "fire2/expand1x1 (Conv2D)         (None, 63, 63, 64)    1088        fire2/relu_squeeze1x1[0][0]      \n",
      "____________________________________________________________________________________________________\n",
      "fire2/expand3x3 (Conv2D)         (None, 63, 63, 64)    9280        fire2/relu_squeeze1x1[0][0]      \n",
      "____________________________________________________________________________________________________\n",
      "fire2/relu_expand1x1 (Activation (None, 63, 63, 64)    0           fire2/expand1x1[0][0]            \n",
      "____________________________________________________________________________________________________\n",
      "fire2/relu_expand3x3 (Activation (None, 63, 63, 64)    0           fire2/expand3x3[0][0]            \n",
      "____________________________________________________________________________________________________\n",
      "fire2/concat (Concatenate)       (None, 63, 63, 128)   0           fire2/relu_expand1x1[0][0]       \n",
      "                                                                   fire2/relu_expand3x3[0][0]       \n",
      "____________________________________________________________________________________________________\n",
      "fire3/squeeze1x1 (Conv2D)        (None, 63, 63, 16)    2064        fire2/concat[0][0]               \n",
      "____________________________________________________________________________________________________\n",
      "fire3/relu_squeeze1x1 (Activatio (None, 63, 63, 16)    0           fire3/squeeze1x1[0][0]           \n",
      "____________________________________________________________________________________________________\n",
      "fire3/expand1x1 (Conv2D)         (None, 63, 63, 64)    1088        fire3/relu_squeeze1x1[0][0]      \n",
      "____________________________________________________________________________________________________\n",
      "fire3/expand3x3 (Conv2D)         (None, 63, 63, 64)    9280        fire3/relu_squeeze1x1[0][0]      \n",
      "____________________________________________________________________________________________________\n",
      "fire3/relu_expand1x1 (Activation (None, 63, 63, 64)    0           fire3/expand1x1[0][0]            \n",
      "____________________________________________________________________________________________________\n",
      "fire3/relu_expand3x3 (Activation (None, 63, 63, 64)    0           fire3/expand3x3[0][0]            \n",
      "____________________________________________________________________________________________________\n",
      "fire3/concat (Concatenate)       (None, 63, 63, 128)   0           fire3/relu_expand1x1[0][0]       \n",
      "                                                                   fire3/relu_expand3x3[0][0]       \n",
      "____________________________________________________________________________________________________\n",
      "pool3 (MaxPooling2D)             (None, 31, 31, 128)   0           fire3/concat[0][0]               \n",
      "____________________________________________________________________________________________________\n",
      "fire4/squeeze1x1 (Conv2D)        (None, 31, 31, 32)    4128        pool3[0][0]                      \n",
      "____________________________________________________________________________________________________\n",
      "fire4/relu_squeeze1x1 (Activatio (None, 31, 31, 32)    0           fire4/squeeze1x1[0][0]           \n",
      "____________________________________________________________________________________________________\n",
      "fire4/expand1x1 (Conv2D)         (None, 31, 31, 128)   4224        fire4/relu_squeeze1x1[0][0]      \n",
      "____________________________________________________________________________________________________\n",
      "fire4/expand3x3 (Conv2D)         (None, 31, 31, 128)   36992       fire4/relu_squeeze1x1[0][0]      \n",
      "____________________________________________________________________________________________________\n",
      "fire4/relu_expand1x1 (Activation (None, 31, 31, 128)   0           fire4/expand1x1[0][0]            \n",
      "____________________________________________________________________________________________________\n",
      "fire4/relu_expand3x3 (Activation (None, 31, 31, 128)   0           fire4/expand3x3[0][0]            \n",
      "____________________________________________________________________________________________________\n",
      "fire4/concat (Concatenate)       (None, 31, 31, 256)   0           fire4/relu_expand1x1[0][0]       \n",
      "                                                                   fire4/relu_expand3x3[0][0]       \n",
      "____________________________________________________________________________________________________\n",
      "fire5/squeeze1x1 (Conv2D)        (None, 31, 31, 32)    8224        fire4/concat[0][0]               \n",
      "____________________________________________________________________________________________________\n",
      "fire5/relu_squeeze1x1 (Activatio (None, 31, 31, 32)    0           fire5/squeeze1x1[0][0]           \n",
      "____________________________________________________________________________________________________\n",
      "fire5/expand1x1 (Conv2D)         (None, 31, 31, 128)   4224        fire5/relu_squeeze1x1[0][0]      \n",
      "____________________________________________________________________________________________________\n",
      "fire5/expand3x3 (Conv2D)         (None, 31, 31, 128)   36992       fire5/relu_squeeze1x1[0][0]      \n",
      "____________________________________________________________________________________________________\n",
      "fire5/relu_expand1x1 (Activation (None, 31, 31, 128)   0           fire5/expand1x1[0][0]            \n",
      "____________________________________________________________________________________________________\n",
      "fire5/relu_expand3x3 (Activation (None, 31, 31, 128)   0           fire5/expand3x3[0][0]            \n",
      "____________________________________________________________________________________________________\n",
      "fire5/concat (Concatenate)       (None, 31, 31, 256)   0           fire5/relu_expand1x1[0][0]       \n",
      "                                                                   fire5/relu_expand3x3[0][0]       \n",
      "____________________________________________________________________________________________________\n",
      "pool5 (MaxPooling2D)             (None, 15, 15, 256)   0           fire5/concat[0][0]               \n",
      "____________________________________________________________________________________________________\n",
      "fire6/squeeze1x1 (Conv2D)        (None, 15, 15, 48)    12336       pool5[0][0]                      \n",
      "____________________________________________________________________________________________________\n",
      "fire6/relu_squeeze1x1 (Activatio (None, 15, 15, 48)    0           fire6/squeeze1x1[0][0]           \n",
      "____________________________________________________________________________________________________\n",
      "fire6/expand1x1 (Conv2D)         (None, 15, 15, 192)   9408        fire6/relu_squeeze1x1[0][0]      \n",
      "____________________________________________________________________________________________________\n",
      "fire6/expand3x3 (Conv2D)         (None, 15, 15, 192)   83136       fire6/relu_squeeze1x1[0][0]      \n",
      "____________________________________________________________________________________________________\n",
      "fire6/relu_expand1x1 (Activation (None, 15, 15, 192)   0           fire6/expand1x1[0][0]            \n",
      "____________________________________________________________________________________________________\n",
      "fire6/relu_expand3x3 (Activation (None, 15, 15, 192)   0           fire6/expand3x3[0][0]            \n",
      "____________________________________________________________________________________________________\n",
      "fire6/concat (Concatenate)       (None, 15, 15, 384)   0           fire6/relu_expand1x1[0][0]       \n",
      "                                                                   fire6/relu_expand3x3[0][0]       \n",
      "____________________________________________________________________________________________________\n",
      "fire7/squeeze1x1 (Conv2D)        (None, 15, 15, 48)    18480       fire6/concat[0][0]               \n",
      "____________________________________________________________________________________________________\n",
      "fire7/relu_squeeze1x1 (Activatio (None, 15, 15, 48)    0           fire7/squeeze1x1[0][0]           \n",
      "____________________________________________________________________________________________________\n",
      "fire7/expand1x1 (Conv2D)         (None, 15, 15, 192)   9408        fire7/relu_squeeze1x1[0][0]      \n",
      "____________________________________________________________________________________________________\n",
      "fire7/expand3x3 (Conv2D)         (None, 15, 15, 192)   83136       fire7/relu_squeeze1x1[0][0]      \n",
      "____________________________________________________________________________________________________\n",
      "fire7/relu_expand1x1 (Activation (None, 15, 15, 192)   0           fire7/expand1x1[0][0]            \n",
      "____________________________________________________________________________________________________\n",
      "fire7/relu_expand3x3 (Activation (None, 15, 15, 192)   0           fire7/expand3x3[0][0]            \n",
      "____________________________________________________________________________________________________\n",
      "fire7/concat (Concatenate)       (None, 15, 15, 384)   0           fire7/relu_expand1x1[0][0]       \n",
      "                                                                   fire7/relu_expand3x3[0][0]       \n",
      "____________________________________________________________________________________________________\n",
      "fire8/squeeze1x1 (Conv2D)        (None, 15, 15, 64)    24640       fire7/concat[0][0]               \n",
      "____________________________________________________________________________________________________\n",
      "fire8/relu_squeeze1x1 (Activatio (None, 15, 15, 64)    0           fire8/squeeze1x1[0][0]           \n",
      "____________________________________________________________________________________________________\n",
      "fire8/expand1x1 (Conv2D)         (None, 15, 15, 256)   16640       fire8/relu_squeeze1x1[0][0]      \n",
      "____________________________________________________________________________________________________\n",
      "fire8/expand3x3 (Conv2D)         (None, 15, 15, 256)   147712      fire8/relu_squeeze1x1[0][0]      \n",
      "____________________________________________________________________________________________________\n",
      "fire8/relu_expand1x1 (Activation (None, 15, 15, 256)   0           fire8/expand1x1[0][0]            \n",
      "____________________________________________________________________________________________________\n",
      "fire8/relu_expand3x3 (Activation (None, 15, 15, 256)   0           fire8/expand3x3[0][0]            \n",
      "____________________________________________________________________________________________________\n",
      "fire8/concat (Concatenate)       (None, 15, 15, 512)   0           fire8/relu_expand1x1[0][0]       \n",
      "                                                                   fire8/relu_expand3x3[0][0]       \n",
      "____________________________________________________________________________________________________\n",
      "fire9/squeeze1x1 (Conv2D)        (None, 15, 15, 64)    32832       fire8/concat[0][0]               \n",
      "____________________________________________________________________________________________________\n",
      "fire9/relu_squeeze1x1 (Activatio (None, 15, 15, 64)    0           fire9/squeeze1x1[0][0]           \n",
      "____________________________________________________________________________________________________\n",
      "fire9/expand1x1 (Conv2D)         (None, 15, 15, 256)   16640       fire9/relu_squeeze1x1[0][0]      \n",
      "____________________________________________________________________________________________________\n",
      "fire9/expand3x3 (Conv2D)         (None, 15, 15, 256)   147712      fire9/relu_squeeze1x1[0][0]      \n",
      "____________________________________________________________________________________________________\n",
      "fire9/relu_expand1x1 (Activation (None, 15, 15, 256)   0           fire9/expand1x1[0][0]            \n",
      "____________________________________________________________________________________________________\n",
      "fire9/relu_expand3x3 (Activation (None, 15, 15, 256)   0           fire9/expand3x3[0][0]            \n",
      "____________________________________________________________________________________________________\n",
      "fire9/concat (Concatenate)       (None, 15, 15, 512)   0           fire9/relu_expand1x1[0][0]       \n",
      "                                                                   fire9/relu_expand3x3[0][0]       \n",
      "____________________________________________________________________________________________________\n",
      "drop9 (Dropout)                  (None, 15, 15, 512)   0           fire9/concat[0][0]               \n",
      "____________________________________________________________________________________________________\n",
      "conv10_17 (Conv2D)               (None, 15, 15, 17)    8721        drop9[0][0]                      \n",
      "____________________________________________________________________________________________________\n",
      "relu_conv10 (Activation)         (None, 15, 15, 17)    0           conv10_17[0][0]                  \n",
      "____________________________________________________________________________________________________\n",
      "flatten_1 (Flatten)              (None, 3825)          0           relu_conv10[0][0]                \n",
      "____________________________________________________________________________________________________\n",
      "dense_1 (Dense)                  (None, 64)            244864      flatten_1[0][0]                  \n",
      "____________________________________________________________________________________________________\n",
      "dense_2 (Dense)                  (None, 17)            1105        dense_1[0][0]                    \n",
      "____________________________________________________________________________________________________\n",
      "loss (Activation)                (None, 17)            0           dense_2[0][0]                    \n",
      "====================================================================================================\n",
      "Total params: 977,186\n",
      "Trainable params: 977,186\n",
      "Non-trainable params: 0\n",
      "____________________________________________________________________________________________________\n"
     ]
    }
   ],
   "source": [
…
